…
	50004: AddedToken(">>eng<<", rstrip=False, lstrip=False, single_word=False, normalized=False, special=True),
	50005: AddedToken("Ġ>>eng<<", rstrip=False, lstrip=False, single_word=False, normalized=False, special=True),
}}, loss_fn=CrossEntropyLoss(), optimizer={'lr': 0.0001, 'betas': (0.9, 0.98), 'eps': 1e-09}, output_path='./output/')

Transformer architecture: 
Transformer(
  (transformer): Transformer(
    (encoder): TransformerEncoder(
      (layers): ModuleList(
        (0-7): 8 x TransformerEncoderLayer(
          (self_attn): MultiheadAttention(
            (out_proj): NonDynamicallyQuantizableLinear(in_features=512, out_features=512, bias=True)
          )
          (linear1): Linear(in_features=512, out_features=2048, bias=True)
          (dropout): Dropout(p=0.1, inplace=False)
          (linear2): Linear(in_features=2048, out_features=512, bias=True)
          (norm1): LayerNorm((512,), eps=1e-05, elementwise_affine=True)
          (norm2): LayerNorm((512,), eps=1e-05, elementwise_affine=True)
          (dropout1): Dropout(p=0.1, inplace=False)
          (dropout2): Dropout(p=0.1, inplace=False)
        )
      )
      (norm): LayerNorm((512,), eps=1e-05, elementwise_affine=True)
    )
    (decoder): TransformerDecoder(
      (layers): ModuleList(
        (0-11): 12 x TransformerDecoderLayer(
          (self_attn): MultiheadAttention(
            (out_proj): NonDynamicallyQuantizableLinear(in_features=512, out_features=512, bias=True)
          )
          (multihead_attn): MultiheadAttention(
            (out_proj): NonDynamicallyQuantizableLinear(in_features=512, out_features=512, bias=True)
          )
          (linear1): Linear(in_features=512, out_features=2048, bias=True)
          (dropout): Dropout(p=0.1, inplace=False)
          (linear2): Linear(in_features=2048, out_features=512, bias=True)
          (norm1): LayerNorm((512,), eps=1e-05, elementwise_affine=True)
          (norm2): LayerNorm((512,), eps=1e-05, elementwise_affine=True)
          (norm3): LayerNorm((512,), eps=1e-05, elementwise_affine=True)
          (dropout1): Dropout(p=0.1, inplace=False)
          (dropout2): Dropout(p=0.1, inplace=False)
          (dropout3): Dropout(p=0.1, inplace=False)
        )
      )
      (norm): LayerNorm((512,), eps=1e-05, elementwise_affine=True)
    )
  )
  (src_tok_emb): Embedding(
    (embedding): Embedding(65536, 512)
  )
  (tgt_tok_emb): Embedding(
    (embedding): Embedding(65536, 512)
  )
  (positional_encoding): PositionalEncoding(
    (dropout): Dropout(p=0.1, inplace=False)
  )
  (generator): Linear(in_features=512, out_features=65536, bias=True)
)

Vocabulary size: 65536

> Translation of 'Hi, what are you doing over there?' before training:
   bevilge bevilge bevilge bevilge bevilge bevilge bevilge bevilge bevilge bevilge bevilge bevilge bevilge bevilge bevilge bevilge bevilge bevilge bevilge bevilge bevilge

Training the model for 50 epochs.

Loading data from Helsinki-NLP/opus-100 for en-no.
…
