…
Hyperparameters(block_size=1024, micro_steps=40, vocab_size=24540, n_layer=8, n_head=12, n_embd=516, dropout=0.0, bias=False, batch_size=32, epochs=10000, optimizer={'lr': 0.0006, 'betas': (0.9, 0.95), 'eps': 1e-09}, scheduler={'decay_lr': True, 'warmup': 2000, 'max': 600000, 'min_lr': 6e-05}, weight_decay=0.1, grad_clip=1.0, output_path='./output/', data_path='./dataset/quixote_oneline.txt', tokenizer={'path': None, 'bpe_path': './tokenization/tokenizer.model', 'k': None, 'special_symbols': {'[PAD]': 256, '[CLS]': 257, '[SEP]': 258}, 'vocab_size': 24540, 'tokenizer': None})

Transformer architecture: 
GPT(
  (transformer): ModuleDict(
    (wte): Embedding(
      (embedding): Embedding(24540, 516)
    )
    (wpe): Embedding(
      (embedding): Embedding(1024, 516)
    )
    (drop): Dropout(p=0.0, inplace=False)
    (h): ModuleList(
      (0-7): 8 x Block(
        (ln_1): LayerNorm()
        (attn): CausalSelfAttention(
          (c_attn): Linear(in_features=516, out_features=1548, bias=False)
          (c_proj): Linear(in_features=516, out_features=516, bias=False)
          (attn_dropout): Dropout(p=0.0, inplace=False)
          (resid_dropout): Dropout(p=0.0, inplace=False)
        )
        (ln_2): LayerNorm()
        (mlp): MLP(
          (c_fc): Linear(in_features=516, out_features=2064, bias=False)
          (gelu): GELU(approximate='none')
          (c_proj): Linear(in_features=2064, out_features=516, bias=False)
          (dropout): Dropout(p=0.0, inplace=False)
        )
      )
    )
    (ln_f): LayerNorm()
  )
  (generator): Linear(in_features=516, out_features=24540, bias=False)
)

Vocabulary size: 24540

> Translation of '“I hold thou art in the right of it, Sancho,” quoth Don Quixote,' before training:
  “I hold thou art in the right of it, Sancho,” quoth Don Quixote,inding aims breadth shooting stigmatata amidships obser philosop alleviate direction reinstate quandary landmarks blacksmith sternly inquisitivenessorted Riseix persuaded struggles portrait-serv grandfather cess first maxims daunt
…
Hyperparameters(block_size=256, micro_steps=1, vocab_size=24540, n_layer=6, n_head=6, n_embd=384, dropout=0.2, bias=False, batch_size=32, epochs=10000, optimizer={'lr': 0.001, 'betas': (0.9, 0.99), 'eps': 1e-09}, scheduler={'decay_lr': True, 'warmup': 100, 'max': 5000, 'min_lr': 0.0001}, weight_decay=0.1, grad_clip=1.0, output_path='./output/', data_path='./dataset/quixote_oneline.txt', tokenizer={'path': None, 'bpe_path': './tokenization/tokenizer.model', 'k': None, 'special_symbols': {'[PAD]': 256, '[CLS]': 257, '[SEP]': 258}, 'vocab_size': 24540, 'tokenizer': None})

Transformer architecture: 
GPT(
  (transformer): ModuleDict(
    (wte): Embedding(
      (embedding): Embedding(24540, 384)
    )
    (wpe): Embedding(
      (embedding): Embedding(256, 384)
    )
    (drop): Dropout(p=0.2, inplace=False)
    (h): ModuleList(
      (0-5): 6 x Block(
        (ln_1): LayerNorm()
        (attn): CausalSelfAttention(
          (c_attn): Linear(in_features=384, out_features=1152, bias=False)
          (c_proj): Linear(in_features=384, out_features=384, bias=False)
          (attn_dropout): Dropout(p=0.2, inplace=False)
          (resid_dropout): Dropout(p=0.2, inplace=False)
        )
        (ln_2): LayerNorm()
        (mlp): MLP(
          (c_fc): Linear(in_features=384, out_features=1536, bias=False)
          (gelu): GELU(approximate='none')
          (c_proj): Linear(in_features=1536, out_features=384, bias=False)
          (dropout): Dropout(p=0.2, inplace=False)
        )
      )
    )
    (ln_f): LayerNorm()
  )
  (generator): Linear(in_features=384, out_features=24540, bias=False)
)

Vocabulary size: 24540

> Translation of '“I hold thou art in the right of it, Sancho,” quoth Don Quixote,' before training:
  “I hold thou art in the right of it, Sancho,” quoth Don Quixote, unmo aims breadth shooting stigmatata amidships obser philosop alleviate direction reinstate blunt landmarks blacksmith persp inquisitivenessorted Rise nois persuaded struggles wed-serv grandfather cess Hipp maxims crazed
…
